…
        zoom_range = 0.2, # Randomly zoom image 
        width_shift_range=0.1,  # randomly shift images horizontally (fraction of total width)
        height_shift_range=0.1,  # randomly shift images vertically (fraction of total height)
        horizontal_flip = True,  # randomly flip images
        vertical_flip=False)  # randomly flip images

Model: "sequential"
_________________________________________________________________
 Layer (type)                Output Shape              Param #
=================================================================
 conv2d (Conv2D)             (None, 100, 100, 32)      896

 max_pooling2d (MaxPooling2D  (None, 50, 50, 32)       0
 )

 conv2d_1 (Conv2D)           (None, 50, 50, 32)        9248

 max_pooling2d_1 (MaxPooling  (None, 25, 25, 32)       0
 2D)

 conv2d_2 (Conv2D)           (None, 25, 25, 32)        9248

 max_pooling2d_2 (MaxPooling  (None, 12, 12, 32)       0
 2D)

 conv2d_3 (Conv2D)           (None, 12, 12, 64)        18496

 max_pooling2d_3 (MaxPooling  (None, 6, 6, 64)         0
 2D)

 dropout (Dropout)           (None, 6, 6, 64)          0

 flatten (Flatten)           (None, 2304)              0

 dense (Dense)               (None, 128)               295040

 dense_1 (Dense)             (None, 3)                 387

=================================================================
Total params: 333,315
Trainable params: 333,315
Non-trainable params: 0