…
        zoom_range = 0.2, # Randomly zoom image 
        width_shift_range=0.1,  # randomly shift images horizontally (fraction of total width)
        height_shift_range=0.1,  # randomly shift images vertically (fraction of total height)
        horizontal_flip = True,  # randomly flip images
        vertical_flip=False)  # randomly flip images

Model: "sequential"
_________________________________________________________________
 Layer (type)                Output Shape              Param #   
=================================================================
 conv2d (Conv2D)             (None, 60, 60, 32)        896       
                                                                 
 max_pooling2d (MaxPooling2D  (None, 30, 30, 32)       0         
 )                                                               
                                                                 
 conv2d_1 (Conv2D)           (None, 30, 30, 32)        9248      
                                                                 
 max_pooling2d_1 (MaxPooling  (None, 15, 15, 32)       0         
 2D)                                                             
                                                                 
 conv2d_2 (Conv2D)           (None, 15, 15, 32)        9248      
                                                                 
 max_pooling2d_2 (MaxPooling  (None, 7, 7, 32)         0         
 2D)                                                             
                                                                 
 conv2d_3 (Conv2D)           (None, 7, 7, 64)          18496     
                                                                 
 max_pooling2d_3 (MaxPooling  (None, 3, 3, 64)         0         
 2D)                                                             
                                                                 
 dropout (Dropout)           (None, 3, 3, 64)          0         
                                                                 
 flatten (Flatten)           (None, 576)               0         
                                                                 
 dense (Dense)               (None, 128)               73856     
                                                                 
 dense_1 (Dense)             (None, 3)                 387       
                                                                 
=================================================================
Total params: 112,131
Trainable params: 112,131
Non-trainable params: 0
